7767517
174 184
Input            input_1                          0 1 input_1 0=0 1=0 2=0
Padding          Conv1_pad/Pad                    1 1 input_1 Conv1_pad/Pad 0=0 1=1 2=0 3=1 4=0 5=0.000000
Convolution      Conv1/convolution                1 1 Conv1_pad/Pad Conv1/convolution 0=32 1=3 11=3 2=1 12=1 3=2 13=2 4=0 5=0 6=864
BatchNorm        bn_Conv1/FusedBatchNorm_1        1 1 Conv1/convolution bn_Conv1/FusedBatchNorm_1 0=32 1=0.001000
Clip             Conv1_relu/Relu6                 1 1 bn_Conv1/FusedBatchNorm_1 Conv1_relu/Relu6 0=0.000000 1=6.000000
ConvolutionDepthWise expanded_conv_depthwise/depthwise 1 1 Conv1_relu/Relu6 expanded_conv_depthwise/depthwise 0=32 1=3 11=3 2=1 12=1 3=1 13=1 4=-233 5=0 6=288 7=32
BatchNorm        expanded_conv_depthwise_BN/FusedBatchNorm_1 1 1 expanded_conv_depthwise/depthwise expanded_conv_depthwise_BN/FusedBatchNorm_1 0=32 1=0.001000
Clip             expanded_conv_depthwise_relu/Relu6 1 1 expanded_conv_depthwise_BN/FusedBatchNorm_1 expanded_conv_depthwise_relu/Relu6 0=0.000000 1=6.000000
Convolution      expanded_conv_project/convolution 1 1 expanded_conv_depthwise_relu/Relu6 expanded_conv_project/convolution 0=16 1=1 11=1 2=1 12=1 3=1 13=1 4=-233 5=0 6=512
BatchNorm        expanded_conv_project_BN/FusedBatchNorm_1 1 1 expanded_conv_project/convolution expanded_conv_project_BN/FusedBatchNorm_1 0=16 1=0.001000
Convolution      block_1_expand/convolution       1 1 expanded_conv_project_BN/FusedBatchNorm_1 block_1_expand/convolution 0=96 1=1 11=1 2=1 12=1 3=1 13=1 4=-233 5=0 6=1536
BatchNorm        block_1_expand_BN/FusedBatchNorm_1 1 1 block_1_expand/convolution block_1_expand_BN/FusedBatchNorm_1 0=96 1=0.001000
Clip             block_1_expand_relu/Relu6        1 1 block_1_expand_BN/FusedBatchNorm_1 block_1_expand_relu/Relu6 0=0.000000 1=6.000000
Padding          block_1_pad/Pad                  1 1 block_1_expand_relu/Relu6 block_1_pad/Pad 0=0 1=1 2=0 3=1 4=0 5=0.000000
ConvolutionDepthWise block_1_depthwise/depthwise      1 1 block_1_pad/Pad block_1_depthwise/depthwise 0=96 1=3 11=3 2=1 12=1 3=2 13=2 4=0 5=0 6=864 7=96
BatchNorm        block_1_depthwise_BN/FusedBatchNorm_1 1 1 block_1_depthwise/depthwise block_1_depthwise_BN/FusedBatchNorm_1 0=96 1=0.001000
Clip             block_1_depthwise_relu/Relu6     1 1 block_1_depthwise_BN/FusedBatchNorm_1 block_1_depthwise_relu/Relu6 0=0.000000 1=6.000000
Convolution      block_1_project/convolution      1 1 block_1_depthwise_relu/Relu6 block_1_project/convolution 0=24 1=1 11=1 2=1 12=1 3=1 13=1 4=-233 5=0 6=2304
BatchNorm        block_1_project_BN/FusedBatchNorm_1 1 1 block_1_project/convolution block_1_project_BN/FusedBatchNorm_1 0=24 1=0.001000
Split            splitncnn_0                      1 2 block_1_project_BN/FusedBatchNorm_1 block_1_project_BN/FusedBatchNorm_1_splitncnn_0 block_1_project_BN/FusedBatchNorm_1_splitncnn_1
Convolution      block_2_expand/convolution       1 1 block_1_project_BN/FusedBatchNorm_1_splitncnn_1 block_2_expand/convolution 0=144 1=1 11=1 2=1 12=1 3=1 13=1 4=-233 5=0 6=3456
BatchNorm        block_2_expand_BN/FusedBatchNorm_1 1 1 block_2_expand/convolution block_2_expand_BN/FusedBatchNorm_1 0=144 1=0.001000
Clip             block_2_expand_relu/Relu6        1 1 block_2_expand_BN/FusedBatchNorm_1 block_2_expand_relu/Relu6 0=0.000000 1=6.000000
ConvolutionDepthWise block_2_depthwise/depthwise      1 1 block_2_expand_relu/Relu6 block_2_depthwise/depthwise 0=144 1=3 11=3 2=1 12=1 3=1 13=1 4=-233 5=0 6=1296 7=144
BatchNorm        block_2_depthwise_BN/FusedBatchNorm_1 1 1 block_2_depthwise/depthwise block_2_depthwise_BN/FusedBatchNorm_1 0=144 1=0.001000
Clip             block_2_depthwise_relu/Relu6     1 1 block_2_depthwise_BN/FusedBatchNorm_1 block_2_depthwise_relu/Relu6 0=0.000000 1=6.000000
Convolution      block_2_project/convolution      1 1 block_2_depthwise_relu/Relu6 block_2_project/convolution 0=24 1=1 11=1 2=1 12=1 3=1 13=1 4=-233 5=0 6=3456
BatchNorm        block_2_project_BN/FusedBatchNorm_1 1 1 block_2_project/convolution block_2_project_BN/FusedBatchNorm_1 0=24 1=0.001000
BinaryOp         block_2_add/add                  2 1 block_1_project_BN/FusedBatchNorm_1_splitncnn_0 block_2_project_BN/FusedBatchNorm_1 block_2_add/add 0=0
Convolution      block_3_expand/convolution       1 1 block_2_add/add block_3_expand/convolution 0=144 1=1 11=1 2=1 12=1 3=1 13=1 4=-233 5=0 6=3456
BatchNorm        block_3_expand_BN/FusedBatchNorm_1 1 1 block_3_expand/convolution block_3_expand_BN/FusedBatchNorm_1 0=144 1=0.001000
Clip             block_3_expand_relu/Relu6        1 1 block_3_expand_BN/FusedBatchNorm_1 block_3_expand_relu/Relu6 0=0.000000 1=6.000000
Padding          block_3_pad/Pad                  1 1 block_3_expand_relu/Relu6 block_3_pad/Pad 0=0 1=1 2=0 3=1 4=0 5=0.000000
ConvolutionDepthWise block_3_depthwise/depthwise      1 1 block_3_pad/Pad block_3_depthwise/depthwise 0=144 1=3 11=3 2=1 12=1 3=2 13=2 4=0 5=0 6=1296 7=144
BatchNorm        block_3_depthwise_BN/FusedBatchNorm_1 1 1 block_3_depthwise/depthwise block_3_depthwise_BN/FusedBatchNorm_1 0=144 1=0.001000
Clip             block_3_depthwise_relu/Relu6     1 1 block_3_depthwise_BN/FusedBatchNorm_1 block_3_depthwise_relu/Relu6 0=0.000000 1=6.000000
Convolution      block_3_project/convolution      1 1 block_3_depthwise_relu/Relu6 block_3_project/convolution 0=32 1=1 11=1 2=1 12=1 3=1 13=1 4=-233 5=0 6=4608
BatchNorm        block_3_project_BN/FusedBatchNorm_1 1 1 block_3_project/convolution block_3_project_BN/FusedBatchNorm_1 0=32 1=0.001000
Split            splitncnn_1                      1 2 block_3_project_BN/FusedBatchNorm_1 block_3_project_BN/FusedBatchNorm_1_splitncnn_0 block_3_project_BN/FusedBatchNorm_1_splitncnn_1
Convolution      block_4_expand/convolution       1 1 block_3_project_BN/FusedBatchNorm_1_splitncnn_1 block_4_expand/convolution 0=192 1=1 11=1 2=1 12=1 3=1 13=1 4=-233 5=0 6=6144
BatchNorm        block_4_expand_BN/FusedBatchNorm_1 1 1 block_4_expand/convolution block_4_expand_BN/FusedBatchNorm_1 0=192 1=0.001000
Clip             block_4_expand_relu/Relu6        1 1 block_4_expand_BN/FusedBatchNorm_1 block_4_expand_relu/Relu6 0=0.000000 1=6.000000
ConvolutionDepthWise block_4_depthwise/depthwise      1 1 block_4_expand_relu/Relu6 block_4_depthwise/depthwise 0=192 1=3 11=3 2=1 12=1 3=1 13=1 4=-233 5=0 6=1728 7=192
BatchNorm        block_4_depthwise_BN/FusedBatchNorm_1 1 1 block_4_depthwise/depthwise block_4_depthwise_BN/FusedBatchNorm_1 0=192 1=0.001000
Clip             block_4_depthwise_relu/Relu6     1 1 block_4_depthwise_BN/FusedBatchNorm_1 block_4_depthwise_relu/Relu6 0=0.000000 1=6.000000
Convolution      block_4_project/convolution      1 1 block_4_depthwise_relu/Relu6 block_4_project/convolution 0=32 1=1 11=1 2=1 12=1 3=1 13=1 4=-233 5=0 6=6144
BatchNorm        block_4_project_BN/FusedBatchNorm_1 1 1 block_4_project/convolution block_4_project_BN/FusedBatchNorm_1 0=32 1=0.001000
BinaryOp         block_4_add/add                  2 1 block_3_project_BN/FusedBatchNorm_1_splitncnn_0 block_4_project_BN/FusedBatchNorm_1 block_4_add/add 0=0
Split            splitncnn_2                      1 2 block_4_add/add block_4_add/add_splitncnn_0 block_4_add/add_splitncnn_1
Convolution      block_5_expand/convolution       1 1 block_4_add/add_splitncnn_1 block_5_expand/convolution 0=192 1=1 11=1 2=1 12=1 3=1 13=1 4=-233 5=0 6=6144
BatchNorm        block_5_expand_BN/FusedBatchNorm_1 1 1 block_5_expand/convolution block_5_expand_BN/FusedBatchNorm_1 0=192 1=0.001000
Clip             block_5_expand_relu/Relu6        1 1 block_5_expand_BN/FusedBatchNorm_1 block_5_expand_relu/Relu6 0=0.000000 1=6.000000
ConvolutionDepthWise block_5_depthwise/depthwise      1 1 block_5_expand_relu/Relu6 block_5_depthwise/depthwise 0=192 1=3 11=3 2=1 12=1 3=1 13=1 4=-233 5=0 6=1728 7=192
BatchNorm        block_5_depthwise_BN/FusedBatchNorm_1 1 1 block_5_depthwise/depthwise block_5_depthwise_BN/FusedBatchNorm_1 0=192 1=0.001000
Clip             block_5_depthwise_relu/Relu6     1 1 block_5_depthwise_BN/FusedBatchNorm_1 block_5_depthwise_relu/Relu6 0=0.000000 1=6.000000
Convolution      block_5_project/convolution      1 1 block_5_depthwise_relu/Relu6 block_5_project/convolution 0=32 1=1 11=1 2=1 12=1 3=1 13=1 4=-233 5=0 6=6144
BatchNorm        block_5_project_BN/FusedBatchNorm_1 1 1 block_5_project/convolution block_5_project_BN/FusedBatchNorm_1 0=32 1=0.001000
BinaryOp         block_5_add/add                  2 1 block_4_add/add_splitncnn_0 block_5_project_BN/FusedBatchNorm_1 block_5_add/add 0=0
Convolution      block_6_expand/convolution       1 1 block_5_add/add block_6_expand/convolution 0=192 1=1 11=1 2=1 12=1 3=1 13=1 4=-233 5=0 6=6144
BatchNorm        block_6_expand_BN/FusedBatchNorm_1 1 1 block_6_expand/convolution block_6_expand_BN/FusedBatchNorm_1 0=192 1=0.001000
Clip             block_6_expand_relu/Relu6        1 1 block_6_expand_BN/FusedBatchNorm_1 block_6_expand_relu/Relu6 0=0.000000 1=6.000000
Padding          block_6_pad/Pad                  1 1 block_6_expand_relu/Relu6 block_6_pad/Pad 0=0 1=1 2=0 3=1 4=0 5=0.000000
ConvolutionDepthWise block_6_depthwise/depthwise      1 1 block_6_pad/Pad block_6_depthwise/depthwise 0=192 1=3 11=3 2=1 12=1 3=2 13=2 4=0 5=0 6=1728 7=192
BatchNorm        block_6_depthwise_BN/FusedBatchNorm_1 1 1 block_6_depthwise/depthwise block_6_depthwise_BN/FusedBatchNorm_1 0=192 1=0.001000
Clip             block_6_depthwise_relu/Relu6     1 1 block_6_depthwise_BN/FusedBatchNorm_1 block_6_depthwise_relu/Relu6 0=0.000000 1=6.000000
Convolution      block_6_project/convolution      1 1 block_6_depthwise_relu/Relu6 block_6_project/convolution 0=64 1=1 11=1 2=1 12=1 3=1 13=1 4=-233 5=0 6=12288
BatchNorm        block_6_project_BN/FusedBatchNorm_1 1 1 block_6_project/convolution block_6_project_BN/FusedBatchNorm_1 0=64 1=0.001000
Split            splitncnn_3                      1 2 block_6_project_BN/FusedBatchNorm_1 block_6_project_BN/FusedBatchNorm_1_splitncnn_0 block_6_project_BN/FusedBatchNorm_1_splitncnn_1
Convolution      block_7_expand/convolution       1 1 block_6_project_BN/FusedBatchNorm_1_splitncnn_1 block_7_expand/convolution 0=384 1=1 11=1 2=1 12=1 3=1 13=1 4=-233 5=0 6=24576
BatchNorm        block_7_expand_BN/FusedBatchNorm_1 1 1 block_7_expand/convolution block_7_expand_BN/FusedBatchNorm_1 0=384 1=0.001000
Clip             block_7_expand_relu/Relu6        1 1 block_7_expand_BN/FusedBatchNorm_1 block_7_expand_relu/Relu6 0=0.000000 1=6.000000
ConvolutionDepthWise block_7_depthwise/depthwise      1 1 block_7_expand_relu/Relu6 block_7_depthwise/depthwise 0=384 1=3 11=3 2=1 12=1 3=1 13=1 4=-233 5=0 6=3456 7=384
BatchNorm        block_7_depthwise_BN/FusedBatchNorm_1 1 1 block_7_depthwise/depthwise block_7_depthwise_BN/FusedBatchNorm_1 0=384 1=0.001000
Clip             block_7_depthwise_relu/Relu6     1 1 block_7_depthwise_BN/FusedBatchNorm_1 block_7_depthwise_relu/Relu6 0=0.000000 1=6.000000
Convolution      block_7_project/convolution      1 1 block_7_depthwise_relu/Relu6 block_7_project/convolution 0=64 1=1 11=1 2=1 12=1 3=1 13=1 4=-233 5=0 6=24576
BatchNorm        block_7_project_BN/FusedBatchNorm_1 1 1 block_7_project/convolution block_7_project_BN/FusedBatchNorm_1 0=64 1=0.001000
BinaryOp         block_7_add/add                  2 1 block_6_project_BN/FusedBatchNorm_1_splitncnn_0 block_7_project_BN/FusedBatchNorm_1 block_7_add/add 0=0
Split            splitncnn_4                      1 2 block_7_add/add block_7_add/add_splitncnn_0 block_7_add/add_splitncnn_1
Convolution      block_8_expand/convolution       1 1 block_7_add/add_splitncnn_1 block_8_expand/convolution 0=384 1=1 11=1 2=1 12=1 3=1 13=1 4=-233 5=0 6=24576
BatchNorm        block_8_expand_BN/FusedBatchNorm_1 1 1 block_8_expand/convolution block_8_expand_BN/FusedBatchNorm_1 0=384 1=0.001000
Clip             block_8_expand_relu/Relu6        1 1 block_8_expand_BN/FusedBatchNorm_1 block_8_expand_relu/Relu6 0=0.000000 1=6.000000
ConvolutionDepthWise block_8_depthwise/depthwise      1 1 block_8_expand_relu/Relu6 block_8_depthwise/depthwise 0=384 1=3 11=3 2=1 12=1 3=1 13=1 4=-233 5=0 6=3456 7=384
BatchNorm        block_8_depthwise_BN/FusedBatchNorm_1 1 1 block_8_depthwise/depthwise block_8_depthwise_BN/FusedBatchNorm_1 0=384 1=0.001000
Clip             block_8_depthwise_relu/Relu6     1 1 block_8_depthwise_BN/FusedBatchNorm_1 block_8_depthwise_relu/Relu6 0=0.000000 1=6.000000
Convolution      block_8_project/convolution      1 1 block_8_depthwise_relu/Relu6 block_8_project/convolution 0=64 1=1 11=1 2=1 12=1 3=1 13=1 4=-233 5=0 6=24576
BatchNorm        block_8_project_BN/FusedBatchNorm_1 1 1 block_8_project/convolution block_8_project_BN/FusedBatchNorm_1 0=64 1=0.001000
BinaryOp         block_8_add/add                  2 1 block_7_add/add_splitncnn_0 block_8_project_BN/FusedBatchNorm_1 block_8_add/add 0=0
Split            splitncnn_5                      1 2 block_8_add/add block_8_add/add_splitncnn_0 block_8_add/add_splitncnn_1
Convolution      block_9_expand/convolution       1 1 block_8_add/add_splitncnn_1 block_9_expand/convolution 0=384 1=1 11=1 2=1 12=1 3=1 13=1 4=-233 5=0 6=24576
BatchNorm        block_9_expand_BN/FusedBatchNorm_1 1 1 block_9_expand/convolution block_9_expand_BN/FusedBatchNorm_1 0=384 1=0.001000
Clip             block_9_expand_relu/Relu6        1 1 block_9_expand_BN/FusedBatchNorm_1 block_9_expand_relu/Relu6 0=0.000000 1=6.000000
ConvolutionDepthWise block_9_depthwise/depthwise      1 1 block_9_expand_relu/Relu6 block_9_depthwise/depthwise 0=384 1=3 11=3 2=1 12=1 3=1 13=1 4=-233 5=0 6=3456 7=384
BatchNorm        block_9_depthwise_BN/FusedBatchNorm_1 1 1 block_9_depthwise/depthwise block_9_depthwise_BN/FusedBatchNorm_1 0=384 1=0.001000
Clip             block_9_depthwise_relu/Relu6     1 1 block_9_depthwise_BN/FusedBatchNorm_1 block_9_depthwise_relu/Relu6 0=0.000000 1=6.000000
Convolution      block_9_project/convolution      1 1 block_9_depthwise_relu/Relu6 block_9_project/convolution 0=64 1=1 11=1 2=1 12=1 3=1 13=1 4=-233 5=0 6=24576
BatchNorm        block_9_project_BN/FusedBatchNorm_1 1 1 block_9_project/convolution block_9_project_BN/FusedBatchNorm_1 0=64 1=0.001000
BinaryOp         block_9_add/add                  2 1 block_8_add/add_splitncnn_0 block_9_project_BN/FusedBatchNorm_1 block_9_add/add 0=0
Convolution      block_10_expand/convolution      1 1 block_9_add/add block_10_expand/convolution 0=384 1=1 11=1 2=1 12=1 3=1 13=1 4=-233 5=0 6=24576
BatchNorm        block_10_expand_BN/FusedBatchNorm_1 1 1 block_10_expand/convolution block_10_expand_BN/FusedBatchNorm_1 0=384 1=0.001000
Clip             block_10_expand_relu/Relu6       1 1 block_10_expand_BN/FusedBatchNorm_1 block_10_expand_relu/Relu6 0=0.000000 1=6.000000
ConvolutionDepthWise block_10_depthwise/depthwise     1 1 block_10_expand_relu/Relu6 block_10_depthwise/depthwise 0=384 1=3 11=3 2=1 12=1 3=1 13=1 4=-233 5=0 6=3456 7=384
BatchNorm        block_10_depthwise_BN/FusedBatchNorm_1 1 1 block_10_depthwise/depthwise block_10_depthwise_BN/FusedBatchNorm_1 0=384 1=0.001000
Clip             block_10_depthwise_relu/Relu6    1 1 block_10_depthwise_BN/FusedBatchNorm_1 block_10_depthwise_relu/Relu6 0=0.000000 1=6.000000
Convolution      block_10_project/convolution     1 1 block_10_depthwise_relu/Relu6 block_10_project/convolution 0=96 1=1 11=1 2=1 12=1 3=1 13=1 4=-233 5=0 6=36864
BatchNorm        block_10_project_BN/FusedBatchNorm_1 1 1 block_10_project/convolution block_10_project_BN/FusedBatchNorm_1 0=96 1=0.001000
Split            splitncnn_6                      1 2 block_10_project_BN/FusedBatchNorm_1 block_10_project_BN/FusedBatchNorm_1_splitncnn_0 block_10_project_BN/FusedBatchNorm_1_splitncnn_1
Convolution      block_11_expand/convolution      1 1 block_10_project_BN/FusedBatchNorm_1_splitncnn_1 block_11_expand/convolution 0=576 1=1 11=1 2=1 12=1 3=1 13=1 4=-233 5=0 6=55296
BatchNorm        block_11_expand_BN/FusedBatchNorm_1 1 1 block_11_expand/convolution block_11_expand_BN/FusedBatchNorm_1 0=576 1=0.001000
Clip             block_11_expand_relu/Relu6       1 1 block_11_expand_BN/FusedBatchNorm_1 block_11_expand_relu/Relu6 0=0.000000 1=6.000000
ConvolutionDepthWise block_11_depthwise/depthwise     1 1 block_11_expand_relu/Relu6 block_11_depthwise/depthwise 0=576 1=3 11=3 2=1 12=1 3=1 13=1 4=-233 5=0 6=5184 7=576
BatchNorm        block_11_depthwise_BN/FusedBatchNorm_1 1 1 block_11_depthwise/depthwise block_11_depthwise_BN/FusedBatchNorm_1 0=576 1=0.001000
Clip             block_11_depthwise_relu/Relu6    1 1 block_11_depthwise_BN/FusedBatchNorm_1 block_11_depthwise_relu/Relu6 0=0.000000 1=6.000000
Convolution      block_11_project/convolution     1 1 block_11_depthwise_relu/Relu6 block_11_project/convolution 0=96 1=1 11=1 2=1 12=1 3=1 13=1 4=-233 5=0 6=55296
BatchNorm        block_11_project_BN/FusedBatchNorm_1 1 1 block_11_project/convolution block_11_project_BN/FusedBatchNorm_1 0=96 1=0.001000
BinaryOp         block_11_add/add                 2 1 block_10_project_BN/FusedBatchNorm_1_splitncnn_0 block_11_project_BN/FusedBatchNorm_1 block_11_add/add 0=0
Split            splitncnn_7                      1 2 block_11_add/add block_11_add/add_splitncnn_0 block_11_add/add_splitncnn_1
Convolution      block_12_expand/convolution      1 1 block_11_add/add_splitncnn_1 block_12_expand/convolution 0=576 1=1 11=1 2=1 12=1 3=1 13=1 4=-233 5=0 6=55296
BatchNorm        block_12_expand_BN/FusedBatchNorm_1 1 1 block_12_expand/convolution block_12_expand_BN/FusedBatchNorm_1 0=576 1=0.001000
Clip             block_12_expand_relu/Relu6       1 1 block_12_expand_BN/FusedBatchNorm_1 block_12_expand_relu/Relu6 0=0.000000 1=6.000000
ConvolutionDepthWise block_12_depthwise/depthwise     1 1 block_12_expand_relu/Relu6 block_12_depthwise/depthwise 0=576 1=3 11=3 2=1 12=1 3=1 13=1 4=-233 5=0 6=5184 7=576
BatchNorm        block_12_depthwise_BN/FusedBatchNorm_1 1 1 block_12_depthwise/depthwise block_12_depthwise_BN/FusedBatchNorm_1 0=576 1=0.001000
Clip             block_12_depthwise_relu/Relu6    1 1 block_12_depthwise_BN/FusedBatchNorm_1 block_12_depthwise_relu/Relu6 0=0.000000 1=6.000000
Convolution      block_12_project/convolution     1 1 block_12_depthwise_relu/Relu6 block_12_project/convolution 0=96 1=1 11=1 2=1 12=1 3=1 13=1 4=-233 5=0 6=55296
BatchNorm        block_12_project_BN/FusedBatchNorm_1 1 1 block_12_project/convolution block_12_project_BN/FusedBatchNorm_1 0=96 1=0.001000
BinaryOp         block_12_add/add                 2 1 block_11_add/add_splitncnn_0 block_12_project_BN/FusedBatchNorm_1 block_12_add/add 0=0
Convolution      block_13_expand/convolution      1 1 block_12_add/add block_13_expand/convolution 0=576 1=1 11=1 2=1 12=1 3=1 13=1 4=-233 5=0 6=55296
BatchNorm        block_13_expand_BN/FusedBatchNorm_1 1 1 block_13_expand/convolution block_13_expand_BN/FusedBatchNorm_1 0=576 1=0.001000
Clip             block_13_expand_relu/Relu6       1 1 block_13_expand_BN/FusedBatchNorm_1 block_13_expand_relu/Relu6 0=0.000000 1=6.000000
Padding          block_13_pad/Pad                 1 1 block_13_expand_relu/Relu6 block_13_pad/Pad 0=0 1=1 2=0 3=1 4=0 5=0.000000
ConvolutionDepthWise block_13_depthwise/depthwise     1 1 block_13_pad/Pad block_13_depthwise/depthwise 0=576 1=3 11=3 2=1 12=1 3=2 13=2 4=0 5=0 6=5184 7=576
BatchNorm        block_13_depthwise_BN/FusedBatchNorm_1 1 1 block_13_depthwise/depthwise block_13_depthwise_BN/FusedBatchNorm_1 0=576 1=0.001000
Clip             block_13_depthwise_relu/Relu6    1 1 block_13_depthwise_BN/FusedBatchNorm_1 block_13_depthwise_relu/Relu6 0=0.000000 1=6.000000
Convolution      block_13_project/convolution     1 1 block_13_depthwise_relu/Relu6 block_13_project/convolution 0=160 1=1 11=1 2=1 12=1 3=1 13=1 4=-233 5=0 6=92160
BatchNorm        block_13_project_BN/FusedBatchNorm_1 1 1 block_13_project/convolution block_13_project_BN/FusedBatchNorm_1 0=160 1=0.001000
Split            splitncnn_8                      1 2 block_13_project_BN/FusedBatchNorm_1 block_13_project_BN/FusedBatchNorm_1_splitncnn_0 block_13_project_BN/FusedBatchNorm_1_splitncnn_1
Convolution      block_14_expand/convolution      1 1 block_13_project_BN/FusedBatchNorm_1_splitncnn_1 block_14_expand/convolution 0=960 1=1 11=1 2=1 12=1 3=1 13=1 4=-233 5=0 6=153600
BatchNorm        block_14_expand_BN/FusedBatchNorm_1 1 1 block_14_expand/convolution block_14_expand_BN/FusedBatchNorm_1 0=960 1=0.001000
Clip             block_14_expand_relu/Relu6       1 1 block_14_expand_BN/FusedBatchNorm_1 block_14_expand_relu/Relu6 0=0.000000 1=6.000000
ConvolutionDepthWise block_14_depthwise/depthwise     1 1 block_14_expand_relu/Relu6 block_14_depthwise/depthwise 0=960 1=3 11=3 2=1 12=1 3=1 13=1 4=-233 5=0 6=8640 7=960
BatchNorm        block_14_depthwise_BN/FusedBatchNorm_1 1 1 block_14_depthwise/depthwise block_14_depthwise_BN/FusedBatchNorm_1 0=960 1=0.001000
Clip             block_14_depthwise_relu/Relu6    1 1 block_14_depthwise_BN/FusedBatchNorm_1 block_14_depthwise_relu/Relu6 0=0.000000 1=6.000000
Convolution      block_14_project/convolution     1 1 block_14_depthwise_relu/Relu6 block_14_project/convolution 0=160 1=1 11=1 2=1 12=1 3=1 13=1 4=-233 5=0 6=153600
BatchNorm        block_14_project_BN/FusedBatchNorm_1 1 1 block_14_project/convolution block_14_project_BN/FusedBatchNorm_1 0=160 1=0.001000
BinaryOp         block_14_add/add                 2 1 block_13_project_BN/FusedBatchNorm_1_splitncnn_0 block_14_project_BN/FusedBatchNorm_1 block_14_add/add 0=0
Split            splitncnn_9                      1 2 block_14_add/add block_14_add/add_splitncnn_0 block_14_add/add_splitncnn_1
Convolution      block_15_expand/convolution      1 1 block_14_add/add_splitncnn_1 block_15_expand/convolution 0=960 1=1 11=1 2=1 12=1 3=1 13=1 4=-233 5=0 6=153600
BatchNorm        block_15_expand_BN/FusedBatchNorm_1 1 1 block_15_expand/convolution block_15_expand_BN/FusedBatchNorm_1 0=960 1=0.001000
Clip             block_15_expand_relu/Relu6       1 1 block_15_expand_BN/FusedBatchNorm_1 block_15_expand_relu/Relu6 0=0.000000 1=6.000000
ConvolutionDepthWise block_15_depthwise/depthwise     1 1 block_15_expand_relu/Relu6 block_15_depthwise/depthwise 0=960 1=3 11=3 2=1 12=1 3=1 13=1 4=-233 5=0 6=8640 7=960
BatchNorm        block_15_depthwise_BN/FusedBatchNorm_1 1 1 block_15_depthwise/depthwise block_15_depthwise_BN/FusedBatchNorm_1 0=960 1=0.001000
Clip             block_15_depthwise_relu/Relu6    1 1 block_15_depthwise_BN/FusedBatchNorm_1 block_15_depthwise_relu/Relu6 0=0.000000 1=6.000000
Convolution      block_15_project/convolution     1 1 block_15_depthwise_relu/Relu6 block_15_project/convolution 0=160 1=1 11=1 2=1 12=1 3=1 13=1 4=-233 5=0 6=153600
BatchNorm        block_15_project_BN/FusedBatchNorm_1 1 1 block_15_project/convolution block_15_project_BN/FusedBatchNorm_1 0=160 1=0.001000
BinaryOp         block_15_add/add                 2 1 block_14_add/add_splitncnn_0 block_15_project_BN/FusedBatchNorm_1 block_15_add/add 0=0
Convolution      block_16_expand/convolution      1 1 block_15_add/add block_16_expand/convolution 0=960 1=1 11=1 2=1 12=1 3=1 13=1 4=-233 5=0 6=153600
BatchNorm        block_16_expand_BN/FusedBatchNorm_1 1 1 block_16_expand/convolution block_16_expand_BN/FusedBatchNorm_1 0=960 1=0.001000
Clip             block_16_expand_relu/Relu6       1 1 block_16_expand_BN/FusedBatchNorm_1 block_16_expand_relu/Relu6 0=0.000000 1=6.000000
ConvolutionDepthWise block_16_depthwise/depthwise     1 1 block_16_expand_relu/Relu6 block_16_depthwise/depthwise 0=960 1=3 11=3 2=1 12=1 3=1 13=1 4=-233 5=0 6=8640 7=960
BatchNorm        block_16_depthwise_BN/FusedBatchNorm_1 1 1 block_16_depthwise/depthwise block_16_depthwise_BN/FusedBatchNorm_1 0=960 1=0.001000
Clip             block_16_depthwise_relu/Relu6    1 1 block_16_depthwise_BN/FusedBatchNorm_1 block_16_depthwise_relu/Relu6 0=0.000000 1=6.000000
Convolution      block_16_project/convolution     1 1 block_16_depthwise_relu/Relu6 block_16_project/convolution 0=320 1=1 11=1 2=1 12=1 3=1 13=1 4=-233 5=0 6=307200
BatchNorm        block_16_project_BN/FusedBatchNorm_1 1 1 block_16_project/convolution block_16_project_BN/FusedBatchNorm_1 0=320 1=0.001000
Convolution      Conv_1/convolution               1 1 block_16_project_BN/FusedBatchNorm_1 Conv_1/convolution 0=1280 1=1 11=1 2=1 12=1 3=1 13=1 4=0 5=0 6=409600
BatchNorm        Conv_1_bn/FusedBatchNorm_1       1 1 Conv_1/convolution Conv_1_bn/FusedBatchNorm_1 0=1280 1=0.001000
Clip             out_relu/Relu6                   1 1 Conv_1_bn/FusedBatchNorm_1 out_relu/Relu6 0=0.000000 1=6.000000
Pooling          global_average_pooling2d_1/Mean  1 1 out_relu/Relu6 global_average_pooling2d_1/Mean 0=1 4=1
MemoryData       dense_1/bias/read                0 1 dense_1/bias/read 0=512 1=0 2=0
InnerProduct     dense_1/MatMul                   1 1 global_average_pooling2d_1/Mean dense_1/MatMul 0=512 1=0 2=655360
BinaryOp         dense_1/BiasAdd                  2 1 dense_1/MatMul dense_1/bias/read dense_1/BiasAdd 0=0
ReLU             dense_1/Relu                     1 1 dense_1/BiasAdd dense_1/Relu 0=0.000000
MemoryData       dense_2/bias/read                0 1 dense_2/bias/read 0=2 1=0 2=0
InnerProduct     dense_2/MatMul                   1 1 dense_1/Relu dense_2/MatMul 0=2 1=0 2=1024
BinaryOp         dense_2/BiasAdd                  2 1 dense_2/MatMul dense_2/bias/read dense_2/BiasAdd 0=0
Softmax          dense_2/Softmax                  1 1 dense_2/BiasAdd dense_2/Softmax
